All files saved to pickles/simple_newData_lr_-4
Number of channels is 1
Model: "mainModel"
_________________________________________________________________
 Layer (type)                Output Shape              Param #   
=================================================================
 input_1 (InputLayer)        [(None, 100, 100, 1)]     0         
                                                                 
 conv2d (Conv2D)             (None, 98, 98, 32)        320       
                                                                 
 batch_normalization (BatchN  (None, 98, 98, 32)       128       
 ormalization)                                                   
                                                                 
 max_pooling2d (MaxPooling2D  (None, 49, 49, 32)       0         
 )                                                               
                                                                 
 conv2d_1 (Conv2D)           (None, 47, 47, 64)        18496     
                                                                 
 batch_normalization_1 (Batc  (None, 47, 47, 64)       256       
 hNormalization)                                                 
                                                                 
 max_pooling2d_1 (MaxPooling  (None, 23, 23, 64)       0         
 2D)                                                             
                                                                 
 conv2d_2 (Conv2D)           (None, 21, 21, 64)        36928     
                                                                 
 batch_normalization_2 (Batc  (None, 21, 21, 64)       256       
 hNormalization)                                                 
                                                                 
 flatten (Flatten)           (None, 28224)             0         
                                                                 
 dense (Dense)               (None, 64)                1806400   
                                                                 
 dense_1 (Dense)             (None, 64)                4160      
                                                                 
 dropout (Dropout)           (None, 64)                0         
                                                                 
 dense_2 (Dense)             (None, 4)                 260       
                                                                 
=================================================================
Total params: 1,867,204
Trainable params: 1,866,884
Non-trainable params: 320
_________________________________________________________________
Starting from epoch 0
Epoch 1/20
  1/266 [..............................] - ETA: 3:08 - loss: 0.9789 - accuracy: 0.
…
